nohup: 忽略输入
model established
Sequential(
  (0): PositionalMapping()
  (1): Transformer(
    (in_net): Linear(in_features=45, out_features=256, bias=True)
    (blocks): ModuleList(
      (0-3): 4 x Block(
        (attn): MultiHeadedSelfAttention(
          (proj_q): Linear(in_features=256, out_features=256, bias=True)
          (proj_k): Linear(in_features=256, out_features=256, bias=True)
          (proj_v): Linear(in_features=256, out_features=256, bias=True)
          (drop): Dropout(p=0, inplace=False)
        )
        (proj): Linear(in_features=256, out_features=256, bias=True)
        (norm1): LayerNorm()
        (pwff): PositionWiseFeedForward(
          (fc1): Linear(in_features=256, out_features=512, bias=True)
          (fc2): Linear(in_features=512, out_features=256, bias=True)
        )
        (norm2): LayerNorm()
        (drop): Dropout(p=0, inplace=False)
      )
    )
    (out_net): Linear(in_features=256, out_features=2, bias=True)
  )
)
Epoch 0 begin

Test set: Epoch: 0, Average loss: 0.00018623

save
min_loss: 0.00018623134815411938
Epoch 1 begin

Test set: Epoch: 1, Average loss: 0.00018052

save
min_loss: 0.00018052040594498017
Epoch 2 begin

Test set: Epoch: 2, Average loss: 0.00014132

save
min_loss: 0.0001413181767115999
Epoch 3 begin

Test set: Epoch: 3, Average loss: 0.00010964
…
