nohup: 忽略输入
model established
Sequential(
  (0): PositionalMapping()
  (1): Out_net(
    (mask_net): Transformer(
      (in_net): Linear(in_features=18, out_features=256, bias=True)
      (blocks): ModuleList(
        (0): Block(
          (attn): CrossAttention(
            (proj_q): Linear(in_features=256, out_features=256, bias=True)
            (proj_k): Linear(in_features=256, out_features=256, bias=True)
            (proj_v): Linear(in_features=256, out_features=256, bias=True)
            (drop): Dropout(p=0, inplace=False)
          )
          (proj_x): Linear(in_features=5, out_features=48, bias=True)
          (proj): Linear(in_features=256, out_features=256, bias=True)
          (norm1): LayerNorm()
          (pwff): PositionWiseFeedForward(
            (fc1): Linear(in_features=256, out_features=512, bias=True)
            (fc2): Linear(in_features=512, out_features=256, bias=True)
          )
          (norm2): LayerNorm()
          (drop): Dropout(p=0, inplace=False)
        )
        (1-3): 3 x Block(
          (attn): MultiHeadedSelfAttention(
            (proj_q): Linear(in_features=256, out_features=256, bias=True)
            (proj_k): Linear(in_features=256, out_features=256, bias=True)
            (proj_v): Linear(in_features=256, out_features=256, bias=True)
            (drop): Dropout(p=0, inplace=False)
          )
          (proj): Linear(in_features=256, out_features=256, bias=True)
          (norm1): LayerNorm()
          (pwff): PositionWiseFeedForward(
            (fc1): Linear(in_features=256, out_features=512, bias=True)
            (fc2): Linear(in_features=512, out_features=256, bias=True)
          )
          (norm2): LayerNorm()
          (drop): Dropout(p=0, inplace=False)
        )
      )
      (out_net): Linear(in_features=256, out_features=1, bias=True)
    )
    (output_set_net): Transformer(
      (in_net): Linear(in_features=18, out_features=256, bias=True)
      (blocks): ModuleList(
        (0): Block(
          (attn): CrossAttention(
            (proj_q): Linear(in_features=256, out_features=256, bias=True)
            (proj_k): Linear(in_features=256, out_features=256, bias=True)
            (proj_v): Linear(in_features=256, out_features=256, bias=True)
            (drop): Dropout(p=0, inplace=False)
          )
          (proj_x): Linear(in_features=5, out_features=48, bias=True)
          (proj): Linear(in_features=256, out_features=256, bias=True)
          (norm1): LayerNorm()
          (pwff): PositionWiseFeedForward(
            (fc1): Linear(in_features=256, out_features=512, bias=True)
            (fc2): Linear(in_features=512, out_features=256, bias=True)
          )
          (norm2): LayerNorm()
          (drop): Dropout(p=0, inplace=False)
        )
        (1-3): 3 x Block(
          (attn): MultiHeadedSelfAttention(
            (proj_q): Linear(in_features=256, out_features=256, bias=True)
            (proj_k): Linear(in_features=256, out_features=256, bias=True)
            (proj_v): Linear(in_features=256, out_features=256, bias=True)
            (drop): Dropout(p=0, inplace=False)
          )
          (proj): Linear(in_features=256, out_features=256, bias=True)
          (norm1): LayerNorm()
          (pwff): PositionWiseFeedForward(
            (fc1): Linear(in_features=256, out_features=512, bias=True)
            (fc2): Linear(in_features=512, out_features=256, bias=True)
          )
          (norm2): LayerNorm()
          (drop): Dropout(p=0, inplace=False)
        )
      )
      (out_net): Linear(in_features=256, out_features=2, bias=True)
    )
  )
)
Epoch 0 begin

Test set: Epoch: 0, Average loss: 0.00238350

save
min_loss: 0.002383500381094142
Epoch 1 begin

Test set: Epoch: 1, Average loss: 0.00242331

min_loss: 0.002383500381094142
Epoch 2 begin

Test set: Epoch: 2, Average loss: 0.00231834

save
min_loss: 0.0023183437963477964
Epoch 3 begin

Test set: Epoch: 3, Average loss: 0.00225087
…
