nohup: 忽略输入
model established
Sequential(
  (0): PositionalMapping()
  (1): Transformer(
    (in_net): Linear(in_features=18, out_features=256, bias=True)
    (blocks): ModuleList(
      (0-3): 4 x Block(
        (attn): MultiHeadedSelfAttention(
          (proj_q): Linear(in_features=256, out_features=256, bias=True)
          (proj_k): Linear(in_features=256, out_features=256, bias=True)
          (proj_v): Linear(in_features=256, out_features=256, bias=True)
          (drop): Dropout(p=0, inplace=False)
        )
        (proj): Linear(in_features=256, out_features=256, bias=True)
        (norm1): LayerNorm()
        (pwff): PositionWiseFeedForward(
          (fc1): Linear(in_features=256, out_features=512, bias=True)
          (fc2): Linear(in_features=512, out_features=256, bias=True)
        )
        (norm2): LayerNorm()
        (drop): Dropout(p=0, inplace=False)
      )
    )
    (out_net): Linear(in_features=256, out_features=1024, bias=True)
  )
  (2): Out_net(
    (mask_net): Linear(in_features=5120, out_features=48, bias=True)
    (output_set_net): Linear(in_features=5120, out_features=96, bias=True)
  )
)
Epoch 0 begin

Test set: Epoch: 0, Average loss: 0.00011154

save
min_loss: 0.00011153965281670352
Epoch 1 begin

Test set: Epoch: 1, Average loss: 0.00009385

save
min_loss: 9.385110344592143e-05
Epoch 2 begin

Test set: Epoch: 2, Average loss: 0.00008900

save
min_loss: 8.900109284347604e-05
Epoch 3 begin

Test set: Epoch: 3, Average loss: 0.00008353
…
