model established
Critical_Net(
  (M_V): PositionalMapping()
  (M_C): PositionalMapping()
  (Backbone_C): Transformer(
    (in_net): Linear(in_features=2907, out_features=256, bias=True)
    (blocks): ModuleList(
      (0-3): 4 x Block(
        (attn): MultiHeadedSelfAttention(
          (proj_q): Linear(in_features=256, out_features=256, bias=True)
          (proj_k): Linear(in_features=256, out_features=256, bias=True)
          (proj_v): Linear(in_features=256, out_features=256, bias=True)
          (drop): Dropout(p=0, inplace=False)
        )
        (proj): Linear(in_features=256, out_features=256, bias=True)
        (norm1): LayerNorm()
        (pwff): PositionWiseFeedForward(
          (fc1): Linear(in_features=256, out_features=512, bias=True)
          (fc2): Linear(in_features=512, out_features=256, bias=True)
        )
        (norm2): LayerNorm()
        (drop): Dropout(p=0, inplace=False)
      )
    )
    (out_net): Linear(in_features=256, out_features=20, bias=True)
  )
  (Backbone_V): Transformer(
    (in_net): Linear(in_features=65, out_features=256, bias=True)
    (blocks): ModuleList(
      (0-3): 4 x Block(
        (attn): MultiHeadedSelfAttention(
          (proj_q): Linear(in_features=256, out_features=256, bias=True)
          (proj_k): Linear(in_features=256, out_features=256, bias=True)
          (proj_v): Linear(in_features=256, out_features=256, bias=True)
          (drop): Dropout(p=0, inplace=False)
        )
        (proj): Linear(in_features=256, out_features=256, bias=True)
        (norm1): LayerNorm()
        (pwff): PositionWiseFeedForward(
          (fc1): Linear(in_features=256, out_features=512, bias=True)
          (fc2): Linear(in_features=512, out_features=256, bias=True)
        )
        (norm2): LayerNorm()
        (drop): Dropout(p=0, inplace=False)
      )
    )
    (out_net): Linear(in_features=256, out_features=32, bias=True)
  )
  (fc): Linear(in_features=5248, out_features=128, bias=True)
  (out_net): Linear(in_features=128, out_features=2, bias=True)
)
Epoch 0 begin

Test set: Epoch: 0, Average loss: 0.00016774

save
min_loss: 0.0001677350771843574
Epoch 1 begin

Test set: Epoch: 1, Average loss: 0.00014348

save
min_loss: 0.00014347895903718826
Epoch 2 begin

Test set: Epoch: 2, Average loss: 0.00010662

save
min_loss: 0.00010662243727319435
Epoch 3 begin

Test set: Epoch: 3, Average loss: 0.00010863
…
